checkpoint.pt (torch, 1706 bytes, 1 tensors)

weight f4 [1, 50]
000000 5b 50 6d bd 68 c4 00 be 2b 87 92 3c a1 a1 08 3e
       -0.05793796 -0.12574923 0.017886719 0.13342907
000010 80 36 00 be 78 de dd 3d 68 f1 0c be 5b d1 03 be
       -0.1252079 0.10833448 -0.13763964 -0.12872832
000020 c7 b4 54 bd 56 8a db bd bb aa 83 3d 57 29 43 b8
       -0.051930215 -0.10719745 0.06429049 -4.6530124e-05
000030 1c 5d 94 bd db a8 f2 3c 87 72 de 3c cc 49 17 3d
       -0.07244322 0.029621532 0.02715422 0.036935613
000040 ee 5e ce 3d d0 ad b3 bd 80 f6 d5 3d 88 ba 10 be
       0.100767 -0.087733865 0.10447407 -0.14133656
000050 a5 b2 d7 bd 82 28 db bd e0 66 e5 3d c1 30 b9 bd
       -0.105321206 -0.107010856 0.112012625 -0.09042502
000060 2b 2a f3 bd a5 2e b5 3d ab 60 07 3e 18 6f 0a be
       -0.11873277 0.08846787 0.1322047 -0.13518941
000070 77 2e c6 bd d2 f0 86 bd 43 c8 0b be 6a aa 18 3d
       -0.09676831 -0.065889016 -0.13650613 0.037271895
000080 43 b7 1c bc e7 26 c0 bd 24 0a e9 bd 19 a6 fb bc
       -0.009565177 -0.0938242 -0.11378887 -0.03071885
000090 d4 81 aa bd fd 14 28 bd 57 ce 73 bd 6b a6 b9 3c
       -0.08325544 -0.04103564 -0.059522953 0.022662362
0000a0 ee 55 86 3c e9 f7 79 3d ac b9 04 3e 01 d9 ca bc
       0.016398396 0.06102744 0.12961453 -0.024761679
0000b0 8a 73 e8 bd fd 02 98 bd ce fd 73 bd c8 b4 ef bc
       -0.11350162 -0.07422445 -0.05956822 -0.029261008
0000c0 42 95 fc 3d 22 69 73 3d
       0.12333156 0.059426434
