DDP/checkpoint.pt (torch, 1578 bytes, 1 tensors)

weight f4 [1, 20]
-0.09732447 0.13542995 0.124448046 0.0014267894 0.026607893 -0.08392095 -0.21960253 -0.09212385
0.1093081 -0.14343485 -0.10141393 0.14300962 -0.027651316 -0.104455456 0.19797906 0.00073674537
-0.17372322 -0.026315583 -0.1063205 -0.11730309
00000000: 0d52 c7bd 26ae 0a3e 9ede fe3d 1c03 bb3a
00000010: ccf8 d93c bfde abbd 7cdf 60be 6eab bcbd
00000020: eddc df3d 96e0 12be 1bb2 cfbd 1d71 123e
00000030: 0385 e2bc beec d5bd 06bb 4a3e 2522 413a
00000040: 80e4 31be c793 d7bc 90be d9bd 9a3c f0bd
