DDP/checkpoint.pt (torch, 1578 bytes, 1 tensors)

weight f4 [1, 20]
0	0xbd9db8d6	-0.0770127
1	0x3dd46e34	0.10372582
2	0x3dbd0704	0.09229854
3	0x3e4ca23a	0.1998376
4	0xbb3d2180	-0.002885908
5	0x3d8546d0	0.06507647
6	0xbca4d2c8	-0.02012004
7	0x3d802100	0.06256294
8	0x3cf554f0	0.029947728
9	0xbe1bc7d6	-0.1521295
10	0xbd8632fa	-0.06552692
11	0xbdde84e1	-0.108651884
12	0xbd294f80	-0.041335583
13	0x3e4118ac	0.18857068
14	0xbe16a502	-0.14711383
15	0xbe1b1456	-0.15144476
16	0xbe555c1c	-0.20835918
17	0x3e1fe854	0.1561597
18	0x3e2b91b8	0.16754806
19	0xbe015623	-0.12630515
