DDP/snapshot.pt (torch, 1758 bytes, 1 tensors)

weight f4 [1, 50]
00000000: f3dd e93d e5fd 7cbd 5a8d e13c 7801 0abe
00000010: 55ca d5bd 674c f1bd 82a1 9fbc 1320 b9bd
00000020: e31f 25bd 9417 01be d2ce e53d e655 953d
00000030: c2ae 853d e2da 70bd 613b 233d c9fd d3bd
00000040: f3de e5bc 51ab 42bd 750a 81bd 24d0 873d
00000050: 1f85 06be 4538 cbbd 4f90 33bc 7b67 dfbd
00000060: 42f5 51bd 14a6 a63d aa8b 103e ba4d 093e
00000070: 0c8e cf3d f2f8 c53d 8cba 1ebd 5e82 c13d
00000080: 20bd 07be 950d febd 3d27 13bd 386e 8f3c
00000090: d95a f53c e00a 8a3d 726e e73d 27d4 083e
000000a0: f8ad 8a3d e88b d33d d77a 18bc 56c0 0a3e
000000b0: 248f 013e d53b 17bd 1696 35bd 0ea3 90bd
000000c0: 5946 f03d 04f9 e6bc
0.114192866 -0.06176557 0.027533222 -0.13477123 -0.104389824 -0.11782151 -0.019486193 -0.09039321
-0.040313613 -0.1260665 0.112210885 0.072917745 0.06527473 -0.058802493 0.03985155 -0.1035114
-0.028060412 -0.04752666 -0.06300823 0.066314965 -0.13136719 -0.09922842 -0.010959699 -0.10908409
-0.051259287 0.08137146 0.14115778 0.13408557 0.10134515 0.09666623 -0.038752124 0.09448694
-0.13255739 -0.12404934 -0.035926092 0.017508611 0.029950546 0.067403555 0.11300363 0.1336218
0.06771463 0.103294194 -0.009306631 0.13549933 0.1265226 -0.036922295 -0.044332586 -0.0706235
0.11732168 -0.028194912
